Lunar lander/checkpoint_1.pth (torch, 22586 bytes, 6 tensors)

fc1.weight f4 [64, 8]
0	0x3eb142b6	0.3462121
1	0x3f706b49	0.93913704
2	0x3cfb67a7	0.030689074
3	0x3eced2a8	0.40395093
4	0xbe876a54	-0.2644831
5	0xbeca1b09	-0.3947375
6	0x3d787b82	0.06066466
7	0x3e49a4ea	0.19691816
8	0x3f8e6623	1.112492
9	0xbda86980	-0.082232475
10	0x3f53a4a5	0.826731
11	0xbf312e8a	-0.6921164
12	0x3d69bcf2	0.057064958
13	0x3da39fd6	0.07989471
14	0x3dcbb170	0.09945953
15	0x3e0af397	0.13569485
16	0x3e8eb522	0.27872568
17	0xbea976b1	-0.33098367
18	0x3ef24bb2	0.47323376
19	0xbee94a90	-0.455647
20	0xbf1867f1	-0.595336
21	0xbcfd866c	-0.030947886
22	0xbe9fa236	-0.31178445
23	0x3ef0ab3e	0.47005647
24	0xbf8f2e45	-1.1185995
25	0xbfaead90	-1.3646717
26	0x3e82ceb4	0.25548327
27	0xbeb2c913	-0.34919032
28	0x3e5dfd9d	0.21678777
29	0x3ccd7afd	0.02508306
30	0x3e9aa003	0.30200204
31	0x3cac6a9a	0.021046925
32	0x3ed1ce41	0.40977672
33	0x3d7cae27	0.061689522
34	0xbe7a3dc9	-0.24437632
35	0x3f3e0c4c	0.74237514
36	0x3f1d244c	0.6138351
37	0x3ee62c8f	0.4495587
38	0x3f27be35	0.6552461
39	0xbda52648	-0.08063942
40	0x3f4884d0	0.78327656
41	0xbf17e600	-0.5933533
42	0x3ebbeace	0.3670258
43	0xbe8f9c79	-0.28049067
44	0xbd4c94d4	-0.04994662
45	0xbe0daf8c	-0.13836497
46	0x3e9db9dd	0.30805865
47	0x3e9bb6b0	0.30412817
48	0x3eb20d9d	0.3477601
49	0xbfa20120	-1.2656593
50	0xbf341c23	-0.70355433
51	0xbf805b33	-1.0027832
52	0x3c07d98e	0.008291615
53	0x3e650e20	0.2236867
54	0xbe29e9e1	-0.16593124
55	0x3ee933c6	0.45547312
56	0x3e8d2a46	0.27571315
57	0xbf8b6c41	-1.0892411
58	0x3f025f87	0.50927013
59	0xbf99bae1	-1.2010156
60	0xbf03a2d9	-0.5142036
61	0xbd423299	-0.047411535
62	0x3e273faf	0.16332887
63	0x3d67ae7d	0.05656289
64	0xbd24d6b3	-0.040243816
65	0xbe329abb	-0.17441837
66	0x3ec2dd5b	0.38059506
67	0xbecbb888	-0.39789224
68	0xbf2227b4	-0.6334183
69	0xbe52e21a	-0.20594063
70	0x3efc35d9	0.49259833
71	0x3e6e0d0c	0.23247164
72	0x3f5d69d9	0.86489636
73	0xbf8739af	-1.0564479
74	0xbf49fd04	-0.78901696
75	0xbf944a7c	-1.1585231
76	0x3e154f25	0.14580972
77	0x3e71b66d	0.23604746
78	0xbdc5e82d	-0.09663425
79	0x3ecaa3e9	0.3957818
80	0xbcfcb880	-0.030849695
81	0xbf8b0b4e	-1.0862825
82	0x3d87bb07	0.066274695
83	0xbf46c7db	-0.77648705
84	0x3f18640c	0.5952766
85	0xbec0e13f	-0.3767185
86	0x3ee60079	0.44922236
87	0xbe464f96	-0.19366297
88	0xbe08fd40	-0.13377857
89	0x3d79f377	0.0610232
90	0x3e12a6e1	0.14321472
91	0xbf637f2d	-0.8886593
92	0x3d9814ac	0.07425818
93	0x3f5b2847	0.85608333
94	0xbe979caa	-0.29611713
95	0xbf4731e1	-0.77810484
96	0x3edca448	0.43094087
97	0xbf099743	-0.5374643
98	0xbec6f53d	-0.38858977
99	0xbfaad031	-1.3344785
100	0x3da687a0	0.08131337
101	0xbd37e682	-0.044897564
102	0xbe8353b6	-0.25649804
103	0x3ede53e7	0.43423387
104	0xbf2d8947	-0.67787594
105	0xbf070c9b	-0.5275361
106	0xbedd9f46	-0.43285578
107	0x3ef5ae00	0.47984314
108	0x3d0690a3	0.03285278
109	0xbe407a25	-0.18796594
110	0x3f06af8b	0.5261161
111	0x3ebed8a2	0.37274653
112	0xbed18503	-0.40921792
113	0xbf71f72e	-0.9451779
114	0xbf01304d	-0.50464326
115	0xbf3438fc	-0.7039945
116	0xbe979ede	-0.29613394
117	0xbe0de0c3	-0.13855271
118	0xbe9aebbf	-0.30257985
119	0xbedec6b1	-0.43510965
120	0x3e3484ac	0.17628735
121	0xbf014037	-0.5048861
122	0xbf38bf61	-0.7216702
123	0xbf18f900	-0.59754944
124	0xbebf1ab2	-0.37325054
125	0xbec6064d	-0.38676682
126	0xbe659bbc	-0.22422689
127	0xbf13bb20	-0.57707405
128	0x3f5b46b2	0.8565475
129	0xbf3ec2f8	-0.7451625
130	0x3f7d4967	0.9894013
131	0xbed03334	-0.40664065
132	0xbf01f0dd	-0.50758153
133	0xbe6a428a	-0.22876945
134	0xbe14a079	-0.1451434
135	0x3df87c6b	0.12133106
136	0xbf73deb7	-0.9526171
137	0xbfac91ef	-1.3482035
138	0xbe3da0a5	-0.18518312
139	0xbf1892f7	-0.5959925
140	0x3e4fcd13	0.20293073
141	0xbdc37ba2	-0.095450655
142	0x3e0ea17c	0.13928789
143	0xbcab12ce	-0.02088299
144	0x3dffcee0	0.1249063
145	0x3e3e7de1	0.18602706
146	0x3fc9db9d	1.5770146
147	0x400031db	2.003043
148	0x3f05c41a	0.5225235
149	0xbea8ad27	-0.32944605
150	0xbeb9bd9b	-0.3627747
151	0x3ef4fb87	0.4784815
152	0x3e9df4c7	0.30850813
153	0xbd968050	-0.073486924
154	0x3fa19c5a	1.262584
155	0xbf54241f	-0.82867616
156	0xbd18d7fe	-0.03731536
157	0x3ccec0fe	0.02523851
158	0x3e70eefc	0.23528665
159	0xbcc26103	-0.0237279
160	0x3ee9eb3b	0.4568728
161	0x3db2ca01	0.087299354
162	0x3ef1a32a	0.47194797
163	0xbf274f64	-0.65355515
164	0x3f8d90c2	1.1059802
165	0xbebd71a7	-0.37000772
166	0x3e14ffd3	0.14550714
167	0x3ed5bb99	0.41744688
168	0xbd38d577	-0.04512545
169	0xc081432d	-4.03945
170	0x3e33357e	0.17500874
171	0xbf60d325	-0.8782218
172	0x3f188367	0.59575504
173	0xbd3252d3	-0.04353602
174	0xbc243c02	-0.010024073
175	0x3cc8f222	0.02452952
176	0x3e1eae54	0.15496188
177	0x3fa098f4	1.2546678
178	0x3e14ae33	0.14519577
179	0xc0127849	-2.2885916
180	0x3e9502ad	0.29103604
181	0x3efe01f8	0.49610877
182	0xbef7d727	-0.48406336
183	0x3b64c80e	0.003490928
184	0xbc2e8bad	-0.0106534185
185	0xbe7aaba1	-0.24479534
186	0x4024b953	2.5738113
187	0xbf921740	-1.1413345
188	0x3e95f6ee	0.29289955
189	0x3e4eaf15	0.20183976
190	0x3dc3d00e	0.09561168
191	0x3e06e0aa	0.1317164
192	0x3f1a39d8	0.6024451
193	0xbf41a20e	-0.756379
194	0xbcd1d6c7	-0.02561511
195	0xbecaa855	-0.39581552
196	0xbe66c076	-0.22534356
197	0xbed1db21	-0.40987495
198	0xbdb57d9b	-0.08861848
199	0x3ee8103a	0.4532488
200	0xbedbe6be	-0.4294948
201	0xba93e56a	-0.0011283581
202	0xbec46abb	-0.3836268
203	0xbe0d0ab5	-0.13773616
204	0x3e347554	0.17622882
205	0xbf50a003	-0.8149416
206	0xbe5977e4	-0.21237141
207	0xbf2d1d26	-0.676226
208	0xbe94023f	-0.28907964
209	0x3b93b7ae	0.0045079803
210	0x3f2afbb5	0.66790324
211	0x3f2dca91	0.67887217
212	0xbef32826	-0.47491568
213	0xbf3ffc7f	-0.74994653
214	0xbee9bb4f	-0.45650718
215	0x3f5fa5fd	0.87362653
216	0x3e3ebce3	0.18626742
217	0xbe3072de	-0.17231318
218	0xbe254ccd	-0.16142578
219	0xbeecf8d9	-0.46283606
220	0xc00362c8	-2.0529041
221	0x3e1ba211	0.15198542
222	0xbec7a636	-0.38993996
223	0x3f120f5b	0.5705468
224	0xbe2e0c90	-0.1699698
225	0x3d3825a3	0.04495777
226	0xbe175dd8	-0.14781892
227	0x3d16b841	0.036796812
228	0xbe82579e	-0.25457472
229	0xbf97b08b	-1.1850752
230	0xbf8be401	-1.0928956
231	0x3e94a49b	0.29031834
232	0x3f0117fb	0.50427216
233	0x3cd8fe24	0.026488371
234	0x3eb23f1f	0.34813783
235	0xbe8010af	-0.2501273
236	0x3d9ab717	0.07554453
237	0xbd98ba7d	-0.07457445
238	0xbf3e2917	-0.7428145
239	0xbf22a80b	-0.63537663
240	0xbf02ea62	-0.5113889
241	0xbd9dde56	-0.07708423
242	0x3ee7a12c	0.45240152
243	0xbef6f1d4	-0.48231375
244	0xbf2b300c	-0.6687019
245	0xbd7ebcad	-0.062191654
246	0xbec81d4e	-0.39084858
247	0xbe41a9be	-0.18912408
248	0x3d4fa8fc	0.050698265
249	0xbe44e029	-0.19226135
250	0x3e8d72a9	0.2762654
251	0xbf7e25a0	-0.9927616
252	0x3fe3daf8	1.7801199
253	0xbe057457	-0.13032661
254	0xbe9f7200	-0.31141663
255	0xbdbd8fd4	-0.09255949

fc1.bias f4 [64]
0	0x3f4b1ebc	0.7934377
1	0xbe175f9f	-0.1478257
2	0xbe3d4ed8	-0.18487108
3	0xbe800ac5	-0.25008217
4	0x3f94f8a9	1.1638385
5	0xbe98acad	-0.2981924
6	0xbe66aca5	-0.22526796
7	0xbe8345f3	-0.25639305
8	0xbedc7a15	-0.4306189
9	0xbe79968d	-0.24373837
10	0xbda4025c	-0.080082625
11	0x3e8045ce	0.25053257
12	0x3ecbf452	0.3983484
13	0xbed63cbb	-0.4184321
14	0x3d4cdf1c	0.05001746
15	0x3e7e903a	0.24859706
16	0xbe1afe1c	-0.15135998
17	0xbd528357	-0.051394787
18	0x3eb8ddfb	0.36106858
19	0xbeae480c	-0.34039342
20	0xbe751e85	-0.23937424
21	0x3ea29a62	0.3175841
22	0x3eb1add9	0.34702948
23	0x3dce91b5	0.10086385
24	0xbf1131ef	-0.5671682
25	0x3d4a536b	0.04939596
26	0xbe8ed589	-0.2789729
27	0x3dd4706c	0.10373005
28	0xbdb107a6	-0.08644037
29	0xbca50b18	-0.020146891
30	0xbece9113	-0.40345058
31	0x3e54e1ca	0.20789257
32	0x3f0527bf	0.5201377
33	0xbf25299a	-0.64516604
34	0xbe6401e5	-0.22266348
35	0x3e9548c1	0.2915707
36	0xbd98d987	-0.07463365
37	0xbddc1564	-0.107462674
38	0x3d6a5cdb	0.05721746
39	0x3eb9d89a	0.36298066
40	0x3bd3b9ae	0.0064613437
41	0x3ea700df	0.32617852
42	0x3e52b1af	0.20575593
43	0xbeef04e5	-0.46683422
44	0x3c003aac	0.007826488
45	0x3d56903e	0.052383654
46	0x3ec4e162	0.38453203
47	0x3e8ece61	0.2789183
48	0x3f09a112	0.537614
49	0x3c3d7a66	0.011564827
50	0x3ea0381d	0.3129281
51	0xbee04e7c	-0.4380988
52	0x3d1eea8e	0.038797908
53	0xbee7ea7f	-0.45296094
54	0xbdd774a0	-0.10520291
55	0x3e785a83	0.24253277
56	0xbebb5250	-0.36586237
57	0xbe8f8c08	-0.28036523
58	0xbeae3e22	-0.3403178
59	0xbe3de74f	-0.18545268
60	0xbe85429d	-0.26027384
61	0xbc9ac3c2	-0.018892173
62	0x3e503aa6	0.20334873
63	0x3e1ead45	0.15495785

fc2.weight f4 [64, 64]
0	0x3e60e28e	0.21961424
1	0xbf0f5f95	-0.5600522
2	0xbfa74a67	-1.3069581
3	0xbf0babd0	-0.5455904
4	0xbe2c1aeb	-0.16807143
5	0xbf88654c	-1.0655913
6	0xbe6dec2b	-0.23234622
7	0xbefad9bb	-0.4899424
8	0xbe94320b	-0.2894443
9	0x3e20ad70	0.15691161
10	0xbf839ce5	-1.0282255
11	0xbe6fcc15	-0.23417695
12	0x3f065d0b	0.5248572
13	0x3d0ff0bc	0.03514169
14	0xbf293935	-0.66102916
15	0xbdf7fce8	-0.12108785
16	0xbf61eb82	-0.8824998
17	0xbf7661f8	-0.9624324
18	0xbf4d96cf	-0.8030824
19	0xbf1bd2ee	-0.6086873
20	0x3c064b9e	0.0081967395
21	0xbf92e745	-1.1476828
22	0x3f0237d1	0.5086642
23	0x3c9e6b02	0.019338135
24	0xbeff0afa	-0.49813062
25	0xbf872b2f	-1.0560054
26	0xbfdd0226	-1.7266281
27	0x3f32c906	0.6983799
28	0xbf109827	-0.56482166
29	0xbf84e542	-1.0382464
30	0xbf8e79fb	-1.1130975
31	0x3ee7d020	0.45275974
32	0xbf4c7fb9	-0.7988239
33	0xbeb04b07	-0.3443224
34	0x3f357cec	0.7089374
35	0xbea02504	-0.3127824
36	0xbf602d9e	-0.87569606
37	0x3f8d87be	1.105705
38	0xbdd9a293	-0.10626712
39	0xbf0ea82f	-0.5572538
40	0xbf4c60d4	-0.7983525
41	0xbe74eeb0	-0.23919177
42	0x3f25c21f	0.6474933
43	0x3d39bd18	0.04534635
44	0xbcd4fd8b	-0.025999805
45	0xbf94d6c4	-1.1628041
46	0xbfbe4566	-1.4864929
47	0x3e97a74f	0.29619834
48	0x3ec12f11	0.3773122
49	0x3f20231b	0.62553567
50	0xbf999f90	-1.200182
51	0xbf6b5307	-0.91923565
52	0x3ede28cc	0.433905
53	0xbf210cef	-0.6291036
54	0xbf8ca9ff	-1.0989379
55	0xbf86493c	-1.0491099
56	0xbea552ee	-0.32289833
57	0x3f8653d1	1.0494329
58	0xbeabd8bd	-0.33563796
59	0xbfb758d6	-1.4323986
60	0xbe59e0ea	-0.21277204
61	0xbf753446	-0.9578289
62	0x3f12fba2	0.5741521
63	0x3f555131	0.83327013
64	0xbf6fc7d3	-0.9366428
65	0x3f170660	0.589941
66	0x3f0996cd	0.5374573
67	0x3f133d4a	0.57515395
68	0xbf5e001b	-0.8671891
69	0x3e5b23b0	0.21400332
70	0x3eb06e64	0.3445922
71	0x3f3b4296	0.7314848
72	0x3f03765a	0.51352465
73	0x3e8ef4d1	0.27921155
74	0x3f3dd7fd	0.74157697
75	0xbeb6fa78	-0.35737967
76	0x3ea95c90	0.33078432
77	0x3df7f13d	0.121065594
78	0x3f84330d	1.032808
79	0x3f3bd729	0.73375183
80	0x3e93c3eb	0.2886041
81	0x3e3a243c	0.18177885
82	0xbfddbff3	-1.7324203
83	0x3f10d1b0	0.5656996
84	0x3eedb50d	0.46427193
85	0x3e0a9e9c	0.13537067
86	0x3e0f17d0	0.13973927
87	0x3eb8ef88	0.36120248
88	0x3f5b92ce	0.8577088
89	0x3c3e2f70	0.01160799
90	0x3ead6729	0.33867767
91	0xbdfea24e	-0.12433301
92	0x3e7e8e78	0.24859035
93	0xbf8ebb13	-1.115084
94	0x3f23f645	0.6404765
95	0xbe87e341	-0.26540568
96	0xbc90cafd	-0.017674917
97	0xbc1c6765	-0.009546136
98	0xbcfa69ca	-0.030568022
99	0x3eb9a25c	0.36256683
100	0x3ec02659	0.37529257
101	0xbf7c9aae	-0.9867352
102	0xbd75a73e	-0.059973948
103	0x3de3abb6	0.11116736
104	0xbc88513d	-0.0166403
105	0x3e236ea6	0.15960178
106	0xbf22aaad	-0.6354168
107	0x3f22670f	0.63438505
108	0x3d8d1d40	0.068903446
109	0x3e7dde8d	0.24791928
110	0x3d3ad54b	0.04561357
111	0x3dfe400c	0.1241456
112	0x3ec1f0b7	0.37878963
113	0xbe60c73d	-0.21951003
114	0x3e222832	0.15835646
115	0x3efbece8	0.49204183
116	0x3e0b94b5	0.13630946
117	0x3f475d3b	0.77876633
118	0x3dd026cf	0.10163652
119	0xbf3d88c6	-0.74036825
120	0x3f31d7f5	0.6947015
121	0xbf8177d3	-1.0114692
122	0x3e4c642e	0.1996009
123	0xbef389b2	-0.4756599
124	0xbeeb8ff7	-0.46008274
125	0xbf510c75	-0.8165963
126	0xbd8618a7	-0.06547671
127	0x3e94b92c	0.29047525
128	0x3dbae6c3	0.091260456
129	0x3f252fc4	0.6452601
130	0xbe011fb7	-0.12609755
131	0xbd4944b6	-0.049137793
132	0xbd907f44	-0.07055524
133	0xbdde08da	-0.10841532
134	0x3cb1c142	0.021698598
135	0x3e5e17b4	0.2168873
136	0xbe948b4d	-0.29012528
137	0x3e7b92b8	0.24567688
138	0x3f63369a	0.8875519
139	0x3f46d359	0.7766624
140	0xbe1d68f2	-0.15372065
141	0xbe760a50	-0.24027371
142	0x3e40a139	0.18811502
143	0xbe8a478f	-0.2700772
144	0x3ed131d2	0.40858322
145	0x3d41ba4e	0.047296815
146	0xbd396539	-0.04526255
147	0x3f302d64	0.6881926
148	0x3e6e19d8	0.23252046
149	0x3e8c81dd	0.27442828
150	0x3ed37ec0	0.4130764
151	0xbe0993bd	-0.13435264
152	0x3d336839	0.043800566
153	0xbe152a3a	-0.1456689
154	0xbe57e26a	-0.21082464
155	0xbeb25339	-0.3482912
156	0xbd9d75c8	-0.076884806
157	0x3e0ab0bd	0.13543983
158	0x3f2bf974	0.6717751
159	0xbe341010	-0.17584252
160	0xbe16dd80	-0.14732933
161	0x3c54abe1	0.012980432
162	0x3f050b7f	0.51970667
163	0xbdd834d9	-0.10556955
164	0x3f0ed80c	0.5579841
165	0x3ea9cc4c	0.3316368
166	0x3e3e3133	0.18573456
167	0x3f096a98	0.53678274
168	0xbe36194b	-0.17783086
169	0xbe77eb27	-0.24210797
170	0x3e8e8a4d	0.2783989
171	0xbec7756a	-0.38956767
172	0x3ddc9528	0.10770637
173	0x3f3d79c3	0.7401392
174	0xbe537cd2	-0.20653084
175	0xbc816023	-0.015792912
176	0x3d6fdc08	0.058559448
177	0xbd76e96c	-0.060281202
178	0x3ea778a0	0.32709217
179	0x3f1d475f	0.6143703
180	0xbedf4550	-0.4360757
181	0x3e92421e	0.28566068
182	0x3ead5d6a	0.33860332
183	0x3e92ebf4	0.28695643
184	0xbd558026	-0.052124165
185	0xbeadd409	-0.33950832
186	0xbda54ff5	-0.08071891
187	0xbe982d16	-0.29721898
188	0xbeace729	-0.3377011
189	0x3ee23f76	0.44189042
190	0xbe0e9682	-0.13924602
191	0x3cad1933	0.02113018
192	0xbf80c388	-1.0059671
193	0x3f8320f9	1.0244437
194	0x3f02cd4e	0.5109452
195	0x3f2b370c	0.6688087
196	0xbf812a05	-1.0090948
197	0x3eda4b17	0.42635414
198	0x3ea3580f	0.3190312
199	0x3f273d22	0.65327656
200	0x3e59c7db	0.21267645
201	0x3ee9544b	0.45572123
202	0x3f0a0733	0.53917235
203	0xbdaef61b	-0.08543035
204	0x3e9c4082	0.30517966
205	0x3df473ce	0.119361505
206	0x3f10da2b	0.565829
207	0x3e9257f0	0.28582716
208	0x3f4f2aa4	0.8092444
209	0x3ddf32b3	0.10898342
210	0xbf3d2af2	-0.73893654
211	0x3f0f3d7d	0.559532
212	0x3f08dd15	0.53462344
213	0x3ef07b0b	0.46968874
214	0x3eccca6a	0.3999818
215	0x3ee7732f	0.45205066
216	0x3f56a2b8	0.8384204
217	0xbe5215bf	-0.20516108
218	0x3d9fce09	0.0780297
219	0xbe19a18c	-0.15003031
220	0xbe05ae27	-0.13054715
221	0xbe187168	-0.14887011
222	0x3f73e187	0.95266
223	0xbe267599	-0.16255797
224	0xbdea932c	-0.11453852
225	0xbdaee882	-0.08540441
226	0x3cb18679	0.021670567
227	0x3e4a2e6b	0.1974427
228	0x3ec2b32f	0.3802733
229	0xbf0ad7ec	-0.5423572
230	0x3c7b09d6	0.015322169
231	0xbd7b8060	-0.061401725
232	0x3eec7e5e	0.4619016
233	0xbdce4e76	-0.10073559
234	0xbee8957a	-0.45426542
235	0x3f0bf687	0.54673046
236	0xbdbac35b	-0.09119292
237	0x3dcfc946	0.10145812
238	0xbd937321	-0.071996935
239	0x3d05d07a	0.032669522
240	0x3f05b32b	0.52226514
241	0xbde27edd	-0.110593535
242	0x3cd843fd	0.026399607
243	0x3f098be8	0.53729105
244	0x3f17c878	0.59290266
245	0x3f560afa	0.836105
246	0xbc5cbb35	-0.013472368
247	0xbda5f734	-0.08103791
248	0x3f0e6a22	0.55630696
249	0xbf058a2f	-0.52163976
250	0xbd067f64	-0.032836333
251	0x39b6151e	0.0003472948
252	0xbe947937	-0.2899873
253	0x3ece0c7d	0.40243903
254	0xbd6032b5	-0.054735858
255	0x3ea6f5bc	0.32609355

fc2.bias f4 [64]
0	0x3d3cbee0	0.04608047
1	0xbed9acb6	-0.4251458
2	0x3eae0889	0.33990887
3	0xbe63d862	-0.22250512
4	0xbea45938	-0.32099319
5	0xbe1159c2	-0.14194396
6	0xbdb667ce	-0.08906518
7	0x3e68332f	0.22675775
8	0xbec6faa8	-0.3886311
9	0xbf09126e	-0.53543746
10	0xbe21374e	-0.15743753
11	0x3bd2995e	0.006426974
12	0xbf199d81	-0.60005957
13	0x3e33b742	0.17550376
14	0xbc5f3c2e	-0.013625188
15	0x3ecc2d56	0.3987834
16	0xbe06f7b0	-0.13180423
17	0xbda7a922	-0.081865564
18	0x3f3eed48	0.7458081
19	0x3c57cb06	0.013170963
20	0xbd108700	-0.035284996
21	0x3e47bf1a	0.19506493
22	0x38a339d7	7.783219e-05
23	0x3e1648b1	0.14676167
24	0x3e5bb4a7	0.21455632
25	0xbd6379c1	-0.055536035
26	0xbd88a2d5	-0.06671683
27	0x3c90dc79	0.017683255
28	0x3d8d4fcd	0.068999864
29	0xbefc4cdc	-0.4927739
30	0x3e0f3c69	0.13987888
31	0x3b8c9e65	0.004291343
32	0x3f0472b9	0.5173755
33	0x3e6ebe1a	0.23314705
34	0xbe2ad3d8	-0.16682374
35	0x3d9d31f5	0.07675544
36	0xbe0ccafe	-0.1374931
37	0xbce2d6ae	-0.027690258
38	0x3e1ca9b8	0.15299118
39	0xbda4819b	-0.08032533
40	0x3f01675c	0.5054834
41	0xbd194dc2	-0.03742767
42	0xbdfb12b6	-0.12259428
43	0xbf1e356b	-0.6180026
44	0x3e336c7a	0.1752185
45	0xbe805e7d	-0.2507209
46	0x3e159846	0.14608869
47	0x3ee641ae	0.44971985
48	0x3e374cb9	0.17900361
49	0xbe061fa8	-0.13098013
50	0xbe7289ef	-0.2368543
51	0x3e98093e	0.2969455
52	0xbef8b814	-0.4857794
53	0x3d9109b5	0.070819296
54	0x3e051a7c	0.12998384
55	0x3e9e44b3	0.30911788
56	0xbd3ddecd	-0.046355058
57	0x3b87bcb0	0.0041423663
58	0xbe1a7d79	-0.15086927
59	0x3dacf032	0.08444251
60	0xbc8b5600	-0.017008781
61	0xbe89a246	-0.26881617
62	0xbe16c571	-0.14723755
63	0x3e2865bd	0.1644506

fc3.weight f4 [4, 64]
0	0x3fc3aa54	1.5286355
1	0xbe605484	-0.2190724
2	0xbdad3ed9	-0.08459253
3	0xbeae1012	-0.33996636
4	0x3e2329ad	0.15933867
5	0xbf2a4e2b	-0.66525525
6	0x3b9426a7	0.0045212093
7	0xbf2567c7	-0.64611477
8	0xbef55883	-0.47919092
9	0xbeddd5c7	-0.43327162
10	0xbf1d7a33	-0.61514586
11	0xbf17733b	-0.591602
12	0xbed8a430	-0.42312765
13	0x3f1a8feb	0.6037585
14	0xbf0940a5	-0.53614265
15	0xbff0d349	-1.8814479
16	0xbcab8260	-0.020936191
17	0xbec305bf	-0.3809032
18	0x3fc7fb1d	1.5623509
19	0xbf8c4fa6	-1.0961807
20	0xbf009885	-0.50232726
21	0x3f8be8c4	1.093041
22	0xbf5857c6	-0.8450893
23	0x4001af8a	2.026339
24	0xbf27691c	-0.6539476
25	0xbf098e5b	-0.5373284
26	0xbf0390c3	-0.51392764
27	0xbf1a01ce	-0.60159004
28	0x3c8a4637	0.016879184
29	0xbe5f0510	-0.21779275
30	0xbf481be9	-0.7816759
31	0xbf1ca89e	-0.6119479
32	0x3ff06128	1.877965
33	0x3ff1971f	1.8874243
34	0xbfd3eeca	-1.6557248
35	0xbf262ce3	-0.6491224
36	0xbf826fd6	-1.019038
37	0xbe68eb60	-0.22746038
38	0xbdfe3560	-0.12412524
39	0xbf8daa02	-1.1067507
40	0x3f7b3058	0.9812064
41	0xbf00bb4c	-0.5028579
42	0xbd8960c0	-0.06707907
43	0xbeaffa76	-0.34370774
44	0x4001a79f	2.0258558
45	0xbf6926c5	-0.9107478
46	0x4007e8a4	2.1235743
47	0x3f5d68f9	0.864883
48	0xbf2bdc7b	-0.671333
49	0xbf5e881e	-0.8692645
50	0xbecdc1c4	-0.40186894
51	0xbfd6ffae	-1.6796777
52	0x3ee74e1a	0.45176774
53	0xbf45454e	-0.77058876
54	0xbed95745	-0.42449394
55	0xbf5639a3	-0.83681697
56	0xbeaf16f1	-0.3419719
57	0x3e20bd51	0.15697218
58	0x3f213ef9	0.62986714
59	0xbccf5a16	-0.025311511
60	0xbd2d8914	-0.042367056
61	0x3b04205c	0.002016089
62	0xbde7f04a	-0.113251284
63	0x4008cdf5	2.1375706
64	0x3fea1a21	1.8289224
65	0xbf1330df	-0.57496446
66	0xbed46b1e	-0.41487974
67	0xbf06a4c3	-0.52595156
68	0xbe88b950	-0.26703882
69	0xbf01a96f	-0.5064916
70	0x3cdd86fd	0.027041906
71	0xbea65a6a	-0.32490855
72	0xbf16d67b	-0.5892102
73	0xbf15a1d6	-0.5845007
74	0xbf255f5f	-0.6459865
75	0xbec84d64	-0.39121544
76	0xbf1fead5	-0.624677
77	0x3e9c709a	0.30554658
78	0xbf08f211	-0.53494364
79	0xbf8cf1f7	-1.1011342
80	0x3dbf5483	0.09342291
81	0xbf1b1d8a	-0.6059195
82	0x3f8089d2	1.004206
83	0xbebcd739	-0.36882952
84	0xbf215cbe	-0.6303214
85	0x40082e03	2.1278083
86	0xbf0cf0dc	-0.5505502
87	0x400058fe	2.0054317
88	0xbf1b4dd4	-0.6066563
89	0xbf6054a8	-0.87629175
90	0xbf2c18a2	-0.67225087
91	0xbf184cc1	-0.5949212
92	0xbd73b176	-0.05949541
93	0xbf4a4da8	-0.79024744
94	0xbee95c5a	-0.4557827
95	0xbef5a7e8	-0.47979665
96	0x401c1fe2	2.439446
97	0x40089e33	2.1346557
98	0xbe174163	-0.14771037
99	0xbf1928cc	-0.59827876
100	0xbe9fba81	-0.3119698
101	0xbf323837	-0.6961703
102	0xbfce5acf	-1.6121463
103	0xbf0e5b63	-0.55608195
104	0x3f95cbe0	1.1702843
105	0xbf1add54	-0.6049397
106	0x3df4ce62	0.11953427
107	0xbf1d636e	-0.6147984
108	0x4000ddb0	2.0135307
109	0xbec74a0d	-0.38923684
110	0x3fd4ea34	1.6633973
111	0x3f91646b	1.135877
112	0xbf43fa1b	-0.76553506
113	0xbec92148	-0.39283204
114	0xbeecf7b9	-0.46282747
115	0xbfaabd2f	-1.3338984
116	0xbecf1015	-0.40441957
117	0xbefc3a52	-0.49263245
118	0xbec65b95	-0.38741747
119	0xbe450c82	-0.19243053
120	0xbefd9869	-0.49530342
121	0x3f16e305	0.58940154
122	0xbab24434	-0.0013600648
123	0x3d348b69	0.044078264
124	0xbd1624f4	-0.036656335
125	0xbeff92a2	-0.4991656
126	0x3c96ae6b	0.018393716
127	0x4015928d	2.3370697
128	0x4005bc7a	2.0896287
129	0xbf034c64	-0.5128844
130	0x3ee4049b	0.44534764
131	0xbe9385f7	-0.28813145
132	0xbf8ec4d3	-1.1153816
133	0xbef3d962	-0.47626787
134	0x3d5457cc	0.051841542
135	0xbe2f31e2	-0.17108873
136	0xbed089fb	-0.4073027
137	0xbf2a6fe7	-0.66577
138	0xbf0e00f6	-0.55470216
139	0xbf45686a	-0.7711245
140	0xbf193dff	-0.59860224
141	0x3fb5a7e4	1.4191861
142	0xbf49e64f	-0.7886705
143	0xbfde9c41	-1.7391435
144	0x3d513e96	0.051085077
145	0xbf0693bf	-0.5256919
146	0x3f90ef87	1.1323098
147	0xbf3ce7c2	-0.73791134
148	0xbf19eaff	-0.601242
149	0x3e856c76	0.26059312
150	0xbf91d32d	-1.1392571
151	0x3ff652c5	1.9244009
152	0xbdf959bc	-0.121753186
153	0xbee8cacf	-0.4546723
154	0xbf04c943	-0.518696
155	0xbeb93972	-0.3617664
156	0xbc922f30	-0.017844766
157	0xbf276258	-0.65384436
158	0xbeabc108	-0.3354571
159	0xbf0a914d	-0.5412796
160	0x3f15be64	0.5849364
161	0x3fcea750	1.614481
162	0x3e130a2c	0.14359349
163	0xbf13aeab	-0.576884
164	0xbf613884	-0.8797686
165	0xbfa55b45	-1.2918478
166	0xbf59b765	-0.8504546
167	0xbe9d1045	-0.30676475
168	0x3f8eae36	1.1146915
169	0xbe944e4c	-0.28965986
170	0x3dce4be4	0.10073069
171	0xbf6e1bc3	-0.9301111
172	0x3fb73537	1.4313115
173	0xbf660432	-0.8985015
174	0x3ff4b6e7	1.9118317
175	0x3fa95d4f	1.32316
176	0xbe8f9860	-0.2804594
177	0xbf26df7a	-0.6518475
178	0xbf43f152	-0.765401
179	0xbfd555d6	-1.666682
180	0xbf49da92	-0.78849137
181	0xbf5aa03a	-0.85400736
182	0x3f27e5ce	0.6558503
183	0xbea978e5	-0.33100048
184	0xbea9d82e	-0.33172745
185	0xc00c8d34	-2.1961184
186	0xbf73c271	-0.9521857
187	0x3dbe5b71	0.09294785
188	0x3c0fcafc	0.008776423
189	0xbf0ad388	-0.5422902
190	0x3d641309	0.055682216
191	0x40004665	2.0042965
192	0x3fcf86cf	1.6213015
193	0xbf83ac65	-1.0286986
194	0xbd750a8d	-0.059824515
195	0xbed0fca1	-0.4081774
196	0xbf26b10c	-0.651139
197	0xbe9cdebf	-0.30638692
198	0xbdcbf5ca	-0.0995899
199	0xbf56903e	-0.83813846
200	0xbf1e7af2	-0.6190635
201	0xbf1d0d5f	-0.6134853
202	0xbf376102	-0.716324
203	0xbf5ec44d	-0.8701828
204	0xbf223810	-0.63366795
205	0x3f3cf3e1	0.7380963
206	0xbf34d0ae	-0.7063092
207	0xbf82d257	-1.0220441
208	0x3da408e8	0.08009511
209	0xbf22e7d8	-0.63635015
210	0x3f974176	1.1816852
211	0xbf51588b	-0.8177573
212	0xbf027774	-0.5096352
213	0x3fb38ca6	1.4027297
214	0xbf8bb2ee	-1.091398
215	0x4008ceb1	2.1376154
216	0xbeb6aec4	-0.3568021
217	0xbe148246	-0.1450282
218	0xbf2c8a96	-0.67398965
219	0xbf07f0d8	-0.53101873
220	0x3dc7fdd2	0.09765209
221	0xbeac5741	-0.3366032
222	0xbf48f827	-0.7850365
223	0xbf38c471	-0.72174746
224	0x400106ab	2.016032
225	0x3fb7934f	1.434183
226	0x3e4b7b4d	0.19871254
227	0xbeeb8f91	-0.4600797
228	0xbe521b69	-0.20518269
229	0xbfd1cf19	-1.6391326
230	0xbe2dab6c	-0.16959924
231	0xbe8fa7b3	-0.28057632
232	0x3f396f94	0.7243588
233	0xbf2cef74	-0.67552876
234	0xbdbc05a2	-0.09180762
235	0xbebf016c	-0.37305772
236	0x402096b9	2.5091994
237	0xbf043434	-0.51642156
238	0x4008dfe6	2.1386657
239	0x3fa10b56	1.2581584
240	0xbeded0cd	-0.43518677
241	0xbf1551f1	-0.5832816
242	0xbf4bb43d	-0.79571897
243	0x3f0cb9a8	0.5497079
244	0xbf537c15	-0.8261121
245	0xbf11b17f	-0.5691146
246	0xbf56fbf1	-0.8397818
247	0xbf5ac778	-0.85460615
248	0xbf302d23	-0.68818873
249	0x3f31a20e	0.693879
250	0x3d1e7315	0.03868397
251	0xbda72aec	-0.081624836
252	0x3dc5e594	0.09662929
253	0xbf089cd9	-0.5336433
254	0xbdedea10	-0.116169095
255	0x4004f97a	2.0777268

fc3.bias f4 [4]
0	0xbd1f0b40	-0.03882909
1	0x3d34750d	0.04405694
2	0x3f0803b3	0.53130645
3	0x3e616e79	0.22014798
