Lunar lander/checkpoint.pth (torch, 22566 bytes, 6 tensors)

fc1.weight f4 [64, 8]
0.21898018 0.625025 -0.09388719 0.39484853 0.6715327 -0.1271231 -0.04340674 0.28480297
0.88642216 -0.37684378 0.8513873 -0.15986748 -0.10324269 0.19432953 0.1843393 0.056365136
-0.18649468 -0.9135403 -0.40963396 -0.15370162 -0.26360664 0.13491388 -0.33040816 -0.030563237
-0.0709642 -0.3364463 -0.255316 -0.26696438 -0.1904857 -0.21559843 0.49400908 -0.22881834
0.4461106 0.21893536 -0.19983247 0.3422223 0.7677321 -0.44676778 -0.13951367 -0.25060755
0.23122156 -2.6736495 1.2400966 0.012831677 0.6231957 -0.10821223 0.052470446 0.28016865
0.051165596 -0.868302 -0.8309733 -0.46619567 0.3847657 0.0808973 -0.06527453 0.12600362
0.5728855 -0.6052096 -0.022014733 -0.3255741 -0.89662427 -0.3802729 0.21260436 -0.22850925
0.17892043 0.008382003 0.53548205 -0.25300798 -1.1639452 -0.40584582 0.52548933 0.21511637
0.12378916 -2.5766354 -0.7545457 -1.1567919 0.45788005 0.64207554 0.011038131 0.23556544
-0.51921326 -1.0081916 -1.1382543 -0.4518717 0.8398106 -0.11728753 0.14260346 0.054963898
-0.16622919 0.3228315 0.37756613 -0.35914886 0.7045928 0.17109077 -0.1825912 -0.19805898
0.13176484 0.048321523 -0.038878 -1.5738817 -0.6266947 0.10735236 0.41974658 0.36871532
-0.31933266 -0.48086926 -0.54164827 -0.2922231 -0.51945347 -0.22658472 0.30185542 0.17767003
-0.3441426 -4.62716 -0.35221842 0.040194627 0.76950586 -0.058130063 0.08756339 -0.052949212
0.4320598 -0.9487039 0.23906566 -0.70954156 -0.9746861 -0.03052863 0.36593527 -0.39479527
0.04906821 0.11568426 0.24820322 0.20663707 -2.5695817 0.0051189484 0.29315 0.54957944
0.14281842 -0.08754016 -0.90768635 -0.8911346 -0.021560492 -0.48464537 0.4002565 -0.3287846
0.043431614 0.19203338 0.115750894 0.54648393 1.0096166 -0.66110474 0.40912807 0.43219423
0.16460705 0.04906533 -0.610434 0.944652 0.6639262 1.0044417 0.14420444 -0.0897809
0.69778377 -0.6661209 0.6735399 -0.8044083 -0.18372822 -0.40370944 0.073677085 0.3715831
-0.31006312 -0.15500388 -0.5809069 0.39629737 0.33492106 0.91712856 -0.19139943 -0.21952781
-0.37550825 0.27318344 0.77141315 -1.1513454 0.4867614 0.41433427 0.2773346 -0.11979091
0.8274851 -0.9787482 1.1520365 -0.37325174 -1.296538 -0.044634383 0.10866887 0.032285217
0.48326293 0.055755302 0.121031575 0.12845871 -0.90140545 -0.4006123 0.4579067 0.121406555
-0.6152763 -0.20544289 -0.1408982 0.23663163 0.35142955 -0.14029388 -0.69763285 -0.32678115
0.16394638 -0.3409547 -0.16793956 0.13477473 -0.25870833 -0.96603584 0.28551364 0.70851696
0.08178507 0.056969278 1.9848642 -1.1293168 -1.3985876 0.350957 0.23648934 -0.23016739
0.09470569 -0.35604775 -0.1680612 0.28426087 0.18534943 -0.8350088 -0.010250569 0.7763374
0.4294704 0.0831898 -0.11406031 -0.2509883 -0.7613299 -0.93240076 -0.68186635 0.16601379
-0.2972867 -0.9054261 0.36625072 0.5085001 0.0041354755 0.48000565 -0.54799145 0.21496707
0.10554339 0.13158937 -0.22191826 -0.78683144 0.94552064 -0.6738101 0.0054238345 0.0758478
00000000: 573c 603e a301 203f ed47 c0bd 9629 ca3e
00000010: 91e9 2b3f 8f2c 02be 44cb 31bd b2d1 913e
00000020: 90ec 623f abf1 c0be 85f4 593f 4db4 23be
00000030: e770 d3bd 52fe 463e 71c3 3c3e 21df 663d
00000040: 76f8 3ebe c7dd 69bf 8bbb d1be f563 1dbe
00000050: 73f7 86be dd26 0a3e 422b a9be c15f fabc
00000060: ae55 91bd b042 acbe c7b8 82be 8eaf 88be
00000070: af0e 43be d6c5 5cbe c2ee fc3e 5b4f 6abe
00000080: 9c68 e43e 9730 603e e2a0 4cbe c337 af3e
00000090: 178a 443f bfbe e4be acdc 0ebe a24f 80be
000000a0: 58c5 6c3e 131d 2bc0 7cbb 9e3f f43b 523c
000000b0: c189 1f3f 609e ddbd 40eb 563d 4472 8f3e
000000c0: 0493 513d 0a49 5ebf abba 54bf 33b1 eebe
000000d0: 0300 c53e 7cad a53d a7ae 85bd 1807 013e
000000e0: a0a8 123f 04ef 1abf 3e58 b4bc a6b1 a6be
000000f0: 2b89 65bf 21b3 c2be f5b4 593e 54fe 69be
00000100: eb36 373e ab54 093c 5a15 093f 438a 81be
00000110: 28fc 94bf 06cb cfbe 7886 063f 7747 5c3e
00000120: 2c85 fd3d 98e7 24c0 e829 41bf c211 94bf
00000130: 416f ea3e 105f 243f 47d9 343c 1138 713e
00000140: 29eb 04bf 6c0c 81bf 51b2 91bf ba5b e7be
00000150: d4fd 563f 7234 f0bd a406 123e d321 613d
00000160: fc37 2abe 2c4a a53e 5950 c13e 5ce2 b7be
00000170: 3260 343f 6b32 2f3e 30f9 3abe f9cf 4abe
00000180: 5ded 063e caec 453d 8a3e 1fbd f574 c9bf
00000190: 106f 20bf 8edb db3d 06e9 d63e 41c8 bc3e
000001a0: 927f a3be 7f34 f6be 76a9 0abf 449e 95be
000001b0: e7fa 04bf d305 68be cb8c 9a3e 22ef 353e
000001c0: 7533 b0be b211 94c0 f955 b4be 1fa3 243d
000001d0: 56fe 443f ca19 6ebd 6f54 b33d 46e1 58bd
000001e0: f136 dd3e 42de 72bf a1cd 743e 84a4 35bf
000001f0: 0785 79bf 2d17 fabc de5b bb3e 9b22 cabe
00000200: bffb 483d dfeb ec3d fc28 7e3e ab98 533e
00000210: 0774 24c0 dabc a73b c217 963e 3db1 0c3f
00000220: fe3e 123e 4148 b3bd 225e 68bf 6621 64bf
00000230: a19f b0bc 7023 f8be 6cee cc3e 7556 a8be
00000240: 59e5 313d 66a4 443e ce0e ed3d 5fe6 0b3f
00000250: 1e3b 813f 293e 29bf 3c79 d13e 9048 dd3e
00000260: c08e 283e baf8 483d 6745 1cbf b7d4 713f
00000270: 11f7 293f 8c91 803f 54aa 133e 0cdf b7bd
00000280: f5a1 323f e686 2abf 1c6d 2c3f b4ed 4dbf
00000290: 4023 3cbe 01b3 cebe 03e4 963d 2440 be3e
000002a0: 98c0 9ebe 56b9 1ebe 51b6 14bf 7de7 ca3e
000002b0: c67a ab3e f0c8 6a3f 36fe 43be e6cb 60be
000002c0: 9e42 c0be b3de 8b3e 557b 453f 495f 93bf
000002d0: ca38 f93e 9f23 d43e cdfe 8d3e f054 f5bd
000002e0: 10d6 533f 3e8f 7abf ef75 933f da1a bfbe
000002f0: f5f4 a5bf 8bd2 36bd c98d de3d 813d 043d
00000300: 3d6e f73e ac5f 643d 67df f73d ae8a 033e
00000310: 82c2 66bf 0e1d cdbe bf72 ea3e 00a4 f83d
00000320: bf82 1dbf 9f5f 52be 9e47 10be 904f 723e
00000330: 93ee b33e 33a9 0fbe 1198 32bf dc4f a7be
00000340: 8fe1 273e 9d91 aebe 59f8 2bbe 6302 0a3e
00000350: 6b75 84be 204e 77bf d82e 923e 5e61 353f
00000360: ee7e a73d 9e58 693d 0810 fe3f 748d 90bf
00000370: eb04 b3bf a3b0 b33e 432a 723e 00b1 6bbe
00000380: 0ff5 c13d e44b b6be 3c18 2cbe a48a 913e
00000390: 3ecc 3d3e 23c3 55bf 01f2 27bc 0cbe 463f
000003a0: 8be3 db3e 6a5f aa3d 7498 e9bd 8a81 80be
000003b0: 84e6 42bf d1b1 6ebf cb8e 2ebf 85ff 293e
000003c0: f635 98be 01ca 67bf 3785 bb3e 102d 023f
000003d0: e282 873b 4dc3 f53e 2b49 0cbf 5420 5c3e
000003e0: 2227 d83d 5dbf 063e 8a3e 63be c96d 49bf
000003f0: a40d 723f d27e 2cbf 6cba b13b 1756 9b3d

fc1.bias f4 [64]
0.603406 -0.006690939 -0.27281538 -0.14767176 0.6285671 0.23468654 0.23659515 -0.21410076
-0.18934613 0.07670402 -0.24267395 0.7717341 0.54247075 -0.3181299 0.29138067 -0.16145952
-0.03502986 -0.012427395 0.4996505 -0.04564059 -0.042818878 0.24264283 0.8866808 -0.12344932
-0.23116376 0.31254733 -0.28516302 0.4711715 0.010270456 0.20765345 -0.18127935 0.34137216
0.46511468 -0.14404204 0.114109196 0.2186311 0.06169448 0.0009551119 0.212081 0.41422498
0.06926282 0.270426 0.17274728 -0.17001975 0.35345617 0.30250767 0.48795897 0.35618535
0.47420132 0.5450762 0.14448123 -0.26618722 -0.36423475 -0.3871638 0.19491416 0.21733402
-0.22640802 -0.1965967 -0.26058015 -0.06152996 -0.23233695 0.6519141 0.225173 -0.24400565
00000000: d178 1a3f aa3f dbbb 75ae 8bbe 4437 17be
00000010: c6e9 203f ab51 703e 0046 723e 3b3d 5bbe
00000020: f4e3 41be ff16 9d3d 857f 78be 5e90 453f
00000030: 5ddf 0a3f ece1 a2be d92f 953e a555 25be
00000040: 787b 0fbd 469c 4bbc 31d2 ff3e a1f1 3abd
00000050: d962 2fbd 5d77 783e 83fd 623f ffd2 fcbd
00000060: 31b6 6cbe 3406 a03e e300 92be 643d f13e
00000070: 6a45 283c 1ba3 543e 4ba1 39be 55c8 ae3e
00000080: 8323 ee3e c27f 13be 15b2 e93d d5e0 5f3e
00000090: 5ab3 7c3d 7960 7a3a c32b 593e 4c15 d43e
000000a0: aad9 8d3d 4775 8a3e aae4 303e a819 2ebe
000000b0: 35f8 b43e 49e2 9a3e c2d5 f93e ed5d b63e
000000c0: 84ca f23e 1d8a 0b3f e3f2 133e b149 88be
000000d0: fa7c babe 553a c6be 9497 473e cf8c 5e3e
000000e0: 81d7 67be a550 49be c36a 85be d706 7cbd
000000f0: bde9 6dbe d8e3 263f c093 663e 9edc 79be

fc2.weight f4 [64, 64]
0.39481214 0.22104877 -0.30564559 0.10002471 0.8560204 -3.010441 -0.1806331 0.27250904
0.0016672435 -0.8659434 0.30686855 0.81876576 0.28972 -0.19985566 -1.410611 0.08520639
-1.4256167 -0.5422033 -1.5217754 0.2975438 -0.7248923 -0.019521723 0.7372754 -0.687777
-0.17327403 0.6529665 -2.3135953 0.7555693 -3.5545442 0.05824272 -0.15734439 -0.40374345
-0.12599379 -0.81688154 -0.11324434 -2.2571566 -0.60289806 0.88048595 0.4327217 -0.50887877
-0.4648781 -0.031295627 0.27145272 -0.23466146 0.09037696 0.6497642 0.02958142 -0.084146515
0.04225427 0.06415917 -0.035092436 0.7870443 -0.13343135 0.2409934 0.22097959 0.4713951
0.048129927 -0.31264427 0.5275536 -0.8953595 -0.38398635 0.01662079 -0.661495 0.2260045
-0.81812733 -0.32175392 1.133439 0.43579665 -0.6722615 -0.84115416 0.1164956 0.29516456
-0.28005663 -0.34261 0.71978575 0.3043879 0.26753855 0.54980975 0.31091398 0.4667142
-1.2639458 0.25658354 -1.0749799 -0.08428867 -0.55916893 0.46389404 0.08879976 -0.112306
0.4485455 0.11955496 -0.4152054 0.40828463 -0.12910894 -0.69519126 0.4579152 0.17434798
-0.12277013 -0.6544877 -0.38070834 0.19627959 -0.5866911 0.6767274 -0.10408215 0.4375905
-0.014545058 -0.62798065 -0.5184343 -0.17880426 0.14384222 0.41209534 -0.39035472 -0.14367896
0.16941668 -0.10102744 0.20912762 0.37504536 0.5561771 0.12547855 0.58701646 1.0752126
0.33068082 0.45021173 0.06438345 1.1701732 0.07563604 -0.13411987 -0.5362998 0.415865
0.4356354 -0.26620546 -0.38537714 0.13289894 0.5924155 1.0688193 0.021192187 -0.29716134
-0.24667941 0.0016161657 -0.85868794 0.65188694 0.24782678 -0.45065436 1.1049607 -0.4338059
0.9131598 0.49250367 0.48476183 0.012900131 -0.2247708 0.08564616 0.40445277 -0.8591846
-0.62013745 -0.198094 -0.5068891 0.04729274 -0.7909591 -0.6874266 -0.47828618 0.6470039
0.41181332 0.33899185 0.9226507 0.9464935 0.16441137 -0.3914267 0.046775352 0.78820103
-0.6759238 -0.20085743 -0.12577005 -0.4160717 -0.04835504 -0.36377278 -0.82456213 0.31146047
0.5961706 0.19056277 -0.6573347 -0.5258652 -0.7139937 -0.75972396 -0.109581426 -0.5284819
-0.6013436 1.0311934 -0.39045075 1.6368698 -0.64612466 0.44540918 0.22768265 -0.47790068
-0.18231733 0.39991143 0.22279419 0.13374159 -0.35604647 -0.7146966 0.011156148 0.57989407
0.3580435 -0.17614736 0.92366844 -0.07628354 0.15475324 0.24937008 -0.9784842 0.8860999
-0.58317506 -0.22163735 -0.082533285 0.13527712 0.15513681 0.40464 0.038979117 1.0867606
0.6368515 0.02453997 0.50641155 0.040776517 0.27400047 0.5550055 0.26879263 -0.020340705
-0.11969839 0.08259481 -0.48981604 -0.66031975 0.14637381 0.6367787 0.42491192 -0.17194407
0.37306783 0.25031596 0.27719817 0.34268728 0.32858247 0.61724114 0.68777657 0.044253916
-0.19012228 0.23985307 0.3687089 0.7271733 0.6693142 1.0830992 0.19193828 0.7213412
0.5002523 -1.1494497 0.50473493 -1.2993814 0.6299659 -0.038243093 0.18267377 0.71386284
00000000: d124 ca3e 9c5a 623e 947d 9cbe c1d9 cc3d
00000010: 2724 5b3f 11ab 40c0 e2f7 38be 4e86 8b3e
00000020: 6987 da3a 77ae 5dbf e01d 9d3e a29a 513f
00000030: 2e56 943e f6a6 4cbe e78e b4bf b080 ae3d
00000040: 9c7a b6bf d6cd 0abf 89c9 c2bf a957 983e
00000050: 8b92 39bf 05ec 9fbc 15be 3c3f 2712 30bf
00000060: bf6e 31be d028 273f f211 14c0 fd6c 413f
00000070: a77d 63c0 eb8f 6e3d e31e 21be 76b7 cebe
00000080: 8404 01be 261f 51bf a6ec e7bd 4175 10c0
00000090: 8757 1abf 8767 613f b38d dd3e e145 02bf
000000a0: 8104 eebe d82f 00bd dafb 8a3e 184b 70be
000000b0: 8e17 b93d f256 263f bc54 f23c 0255 acbd
000000c0: d012 2d3d e265 833d 16bd 0fbd bc7b 493f
000000d0: 3aa2 08be f9c6 763e 7948 623e b35a f13e
000000e0: e323 453d e912 a0be c10d 073f 4836 65bf
000000f0: dc99 c4be 5328 883c bc57 29bf b96d 673e
00000100: cb70 51bf eebc a4be 8714 913f bd20 df3e
00000110: 5419 2cbf e155 57bf 3f95 ee3d cf1f 973e
00000120: 9563 8fbe 946a afbe e143 383f bbd8 9b3e
00000130: d0fa 883e 55c0 0c3f 1e30 9f3e 2af5 ee3e
00000140: fac8 a1bf eb5e 833e f198 89bf 8a9f acbd
00000150: b225 0fbf 8583 ed3e a6dc b53d b000 e6bd
00000160: c1a7 e53e 3bd9 f43d cd95 d4be af0a d13e
00000170: 2235 04be 0ef8 31bf dc73 ea3e 4788 323e
00000180: e86e fbbd 828c 27bf 34ec c2be 84fd 483e
00000190: 6331 16bf 023e 2d3f 0629 d5bd dd0b e03e
000001a0: 654e 6ebc 57c3 20bf 1cb8 04bf 7718 37be
000001b0: 604b 133e 29fe d23e 93dc c7be 9420 13be
000001c0: 917b 2d3e 79e7 cebd 8d25 563e f205 c03e
000001d0: 9f61 0e3f 737d 003e b646 163f 91a0 893f
000001e0: ff4e a93e 2782 e63e 78db 833d 3cc8 953f
000001f0: 11e7 9a3d b856 09be f24a 09bf 42ec d43e
00000200: 9a0b df3e 154c 88be 2750 c5be a916 083e
00000210: 8ba8 173f 12cf 883f 3d9b ad3c 8825 98be
00000220: 8799 7cbe 86d5 d33a f9d2 5bbf 10e2 263f
00000230: 4ec6 7d3e 2bbc e6be 5a6f 8d3f cf1b debe
00000240: d7c4 693f 7129 fc3e b432 f83e 125b 533c
00000250: 512a 66be 4167 af3d 6f14 cf3e 86f3 5bbf
00000260: 54c1 1ebf 27d9 4abe 7cc3 01bf 08b6 413d
00000270: 4c7c 4abf 31fb 2fbf ede1 f4be 0ca2 253f
00000280: 32d9 d23e 5790 ad3e d632 6c3f 664d 723f
00000290: 745b 283e 1569 c8be 8397 3f3d 8bc7 493f
000002a0: 5809 2dbf 92ad 4dbe ddc9 00be 5a07 d5be
000002b0: ef0f 46bd 6d40 babe 8116 53bf bf77 9f3e
000002c0: a39e 183f e322 433e 1647 28bf 1a9f 06bf
000002d0: 4bc8 36bf 457d 42bf 3a6c e0bd 974a 07bf
000002e0: a7f1 19bf 25fe 833f 29e9 c7be f384 d13f
000002f0: 6d68 25bf ac0c e43e a425 693e 66af f4be
00000300: 65b1 3abe 31c1 cc3e 2924 643e 8ef3 083e
00000310: b94b b6be 5bf6 36bf 47c8 363c f073 143f
00000320: 7a51 b73e f95f 34be 8975 6c3f 8b3a 9cbd
00000330: a277 1e3e df5a 7f3e f17d 7abf 71d7 623f
00000340: f64a 15bf e7f4 62be 3607 a9bd 1686 0a3e
00000350: 2fdc 1e3e f92c cf3e 91a8 1f3d f91a 8b3f
00000360: b308 233f 0c08 c93c 30a4 013f 4705 273d
00000370: ca49 8c3e d714 0e3f 309f 893e 8da1 a6bc
00000380: 6e24 f5bd 7827 a93d 2bc9 fabe b70a 29bf
00000390: 04e3 153e ee03 233f 0e8e d93e 1b12 30be
000003a0: bf02 bf3e 6a29 803e ebec 8d3e b574 af3e
000003b0: f63b a83e 8403 1e3f 2012 303f 9843 353d
000003c0: 6aaf 42be 0b9c 753e 6ac7 bc3e 0828 3a3f
000003d0: 2d58 2b3f ffa2 8a3f 788b 443e d1a9 383f
000003e0: 8910 003f 2b21 93bf 4f36 013f 2152 a6bf
000003f0: 7245 213f caa4 1cbd d50e 3b3e b7bf 363f

fc2.bias f4 [64]
0.75153846 0.19855969 0.4692051 0.22008826 0.29675895 0.27437192 -0.0778804 0.48764923
-0.08022199 0.3776837 0.09995025 0.17441726 0.23341087 0.41134605 0.283318 0.29816702
0.6084508 0.18653156 0.0014159585 0.14371704 0.21031575 0.19891234 0.25467387 -0.07631075
0.25885722 0.20767002 0.17709786 -0.009448675 0.26617506 0.18650518 0.59375834 0.21518739
0.562375 0.073810294 0.6147944 0.2980098 0.1458912 0.16258006 0.24641556 0.3823136
0.28435802 0.16110538 -0.12259428 -0.13760638 0.1022381 0.21755248 0.13851066 0.5776295
0.4142208 0.25089878 0.046519026 0.3302976 0.17647645 0.28057763 0.4115114 0.015925312
0.2291908 -0.2541017 0.09293662 0.10500811 -0.0027891994 0.280958 -0.13836215 0.4237698
00000000: d364 403f 3b53 4b3e a73b f03e d15e 613e
00000010: caf0 973e 7a7a 8c3e c27f 9fbd 29ad f93e
00000020: 6d4b a4bd c25f c13e b7b2 cc3d 709a 323e
00000030: 4203 6f3e f39b d23e 0f0f 913e 59a9 983e
00000040: 6ec3 1b3f 2102 3f3e af97 b93a 8f2a 133e
00000050: 035d 573e adaf 4b3e 9d64 823e cf48 9cbd
00000060: ef88 843e 73a7 543e 2459 353e 9ece 1abc
00000070: 1948 883e 37fb 3e3e 8c00 183f 155a 5c3e
00000080: cff7 0f3f da29 973d 2a63 1d3f be94 983e
00000090: 8164 153e 637b 263e 5c54 7c3e 9cbe c33e
000000a0: 6097 913e cff8 243e b612 fbbd b0e8 0cbe
000000b0: 3562 d13d 14c6 5e3e bdd5 0d3e 87df 133f
000000c0: c014 d43e ce75 803e bc8a 3e3d c41c a93e
000000d0: 3eb6 343e dfa7 8f3e 9fb1 d23e cd75 823c
000000e0: feb0 6a3e 9e19 82be 8e55 be3d 7e0e d73d
000000f0: 00cb 36bb bad9 8f3e cfae 0dbe 5bf8 d83e

fc3.weight f4 [4, 64]
-0.7746806 -1.266298 1.1718192 -0.49764618 -0.38325623 0.852007 -0.0007402964 1.1372459
0.014757176 0.7518228 -0.46396133 -0.42436203 -0.43235266 1.3181584 -0.4095462 -0.32593712
5.35113 -0.3451453 0.59549886 -0.551979 -0.41122597 -0.33682558 -0.44332907 -0.050828174
-0.38681588 -0.8896141 -0.3622857 -0.06717385 -0.40156862 -0.41848996 1.1550022 -0.43524382
-0.9678871 0.010535241 1.3891648 -0.47521004 -0.47969306 -0.33652988 -0.29123572 -1.2110349
1.1289238 -0.3468148 -0.06707907 0.5086949 0.28665924 1.6293986 -0.36764243 1.6556169
1.0331908 -0.36723983 -0.39932078 -0.6974279 -0.3738483 -0.509255 -1.911597 -0.029606642
-0.35836095 -0.5294098 -0.43284076 -0.016584106 -0.042367056 -0.4976437 -0.09812743 1.1282333
-1.880263 -1.5294399 0.9887141 -0.32207 -0.3095489 1.1994231 0.030403186 1.4926932
-0.028317632 1.3276194 -0.43555257 -0.33025035 -0.37922484 1.0875716 -0.33161288 -0.4943888
5.08103 -0.43063727 -0.008221031 -0.2687144 -0.43821234 -0.41740122 -0.29669765 0.06502032
-0.5914711 -0.47766608 -0.4718654 -0.08713036 -0.5426883 -0.47589597 1.3706609 -0.3084293
-1.1144191 -0.0625949 1.5922698 -0.3416178 -0.25801808 -0.39044622 -0.47912312 -0.89032894
1.2781584 -0.42636925 0.11953427 -0.17225058 -0.19809347 1.2525796 -0.478895 1.3579079
0.49166304 -0.4568969 -0.38235307 -0.75926197 -0.39487156 -0.27437493 -2.059286 0.11242859
-0.43074462 -0.10826374 -0.44473305 0.020312889 -0.036656335 -0.29600245 0.065431766 1.1221135
-0.6388335 -0.98289454 1.0708178 -0.46414238 -0.6505428 1.5521909 0.031175956 1.4957844
0.065869465 1.2242962 -0.4129014 -0.61979294 -0.5130538 0.99442554 -0.49511382 -0.49282378
4.008234 -0.44670683 0.51328486 -0.55713284 -0.43067628 -0.6246458 -0.68700826 0.050166707
-0.34817138 -1.8004831 -0.40663788 0.020678876 -0.6807932 -0.3844634 1.2220514 -0.4040759
0.11365633 1.5436815 0.9704656 -0.39691016 -0.604805 -0.6427773 -0.41667503 -0.268035
1.2714014 -0.26969796 0.10073069 -0.8384227 0.8783794 -0.43094814 -0.3956988 0.40547085
1.0370101 -0.48221537 -0.34835038 -0.7129066 -0.5917563 -0.5807418 0.44759083 -0.05214697
-0.38915446 -0.19233075 -0.40550673 0.09639664 0.022981271 -0.405029 0.05002531 1.2138076
-0.5580272 -0.41385904 1.0126852 -0.5099128 -0.73361826 1.2730818 -0.08370746 0.8891534
0.041855007 0.84570426 -0.46898 -0.640511 -0.50819224 1.3114105 -0.35080028 -0.3434036
4.5771093 -0.36012253 0.7550648 -0.49630913 -0.3023918 -0.59816605 -0.55637 0.044756435
-0.33026138 -0.87929326 -0.38614124 0.0125084175 -0.2711842 -0.2555074 0.83943295 -0.43818977
-0.7833115 0.17521836 1.319453 -0.3105024 -0.4401623 -0.6710071 -0.4807985 -0.47184062
0.9034332 -0.4065358 -0.09180762 0.30154595 0.5015963 0.004996684 -0.6070004 1.7536157
1.4380734 -0.4434298 -0.51841015 -0.10678574 -0.58565086 -0.36752918 -1.1260953 -0.11145119
-0.49644363 1.0263641 -0.28218424 -0.10673692 0.09662929 -0.4951166 -0.09368518 1.1447426
00000000: 7851 46bf 0e16 a2bf 2cfe 953f 7bcb febe
00000010: 293a c4be 211d 5a3f 7310 42ba 4691 913f
00000020: 15c8 713c 7677 403f 578c edbe fb45 d9be
00000030: 545d ddbe 6ab9 a83f 0ab0 d1be 3be1 a6be
00000040: 753c ab40 e2b6 b0be 9d72 183f 7f4e 0dbf
00000050: 368c d2be 6774 acbe 07fc e2be 3431 50bd
00000060: bb0c c6be c0bd 63bf 837d b9be 7292 89bd
00000070: 679a cdbe 5144 d6be 1dd7 933f 47d8 debe
00000080: 73c7 77bf 019c 2c3c 27d0 b13f bb4e f3be
00000090: 549a f5be a54d acbe d91c 95be 3103 9bbf
000000a0: 9380 903f b691 b1be c060 89bd d439 023f
000000b0: 00c5 923e 2290 d03f a13b bcbe 41eb d33f
000000c0: 993f 843f dc06 bcbe c673 ccbe a38a 32bf
000000d0: 0b69 bfbe 895e 02bf 36af f4bf a189 f2bc
000000e0: 167b b7be 6787 07bf 4e9d ddbe 64db 87bc
000000f0: 1489 2dbd 28cb febe 09f7 c8bd f369 903f
00000100: 75ac f0bf b0c4 c3bf 5e1c 7d3f 5ce6 a4be
00000110: 327d 9ebe b286 993f 1a10 f93c 9210 bf3f
00000120: 61fa e7bc 6fef a93f bf00 dfbe 9316 a9be
00000130: c229 c2be 8c35 8b3f 2ac9 a9be 8720 fdbe
00000140: cc97 a240 7d7c dcbe 81b1 06bc ef94 89be
00000150: 5e5d e0be 9db5 d5be c1e8 97be 6029 853d
00000160: a66a 17bf a690 f4be 5798 f1be 6771 b2bd
00000170: 9fed 0abf a3a8 f3be d171 af3f 72ea 9dbe
00000180: 49a5 8ebf c131 80bd 7fcf cb3f 87e8 aebe
00000190: f21a 84be 91e8 c7be a04f f5be 99ec 63bf
000001a0: b29a a33f 124d dabe 62ce f43d 7562 30be
000001b0: 04d9 4abe 8754 a03f ba31 f5be edcf ad3f
000001c0: 42bb fb3e 64ee e9be c8c3 c3be fe5e 42bf
000001d0: 9b2c cabe df7a 8cbe 58cb 03c0 f640 e63d
000001e0: 8f8a dcbe 61b9 ddbd 0db4 e3be 3767 a63c
000001f0: f424 16bd a28d 97be 1701 863d 6aa1 8f3f
00000200: 988a 23bf fa9e 7bbf 8f10 893f 12a4 edbe
00000210: f989 26bf 31ae c63f b864 ff3c dd75 bf3f
00000220: 92e6 863d bdb5 9c3f d067 d3be c0aa 1ebf
00000230: 7e57 03bf ac92 7e3f 8f7f fdbe 6653 fcbe
00000240: 7443 8040 c2b6 e4be a366 033f 42a0 0ebf
00000250: 9a81 dcbe cae8 1fbf c6df 2fbf 9b7b 4d3d
00000260: 8543 b2be 3b76 e6bf d732 d0be bf66 a93c
00000270: 7748 2ebf 63d8 c4be 2e6c 9c3f 09e3 cebe
00000280: a6c4 e83d 5b97 c53f 6f70 783f cf37 cbbe
00000290: 80d4 1abf 0e8d 24bf 6e56 d5be e23b 89be
000002a0: 48bd a23f da15 8abe e44b ce3d dfa2 56bf
000002b0: 79dd 603f 3ca5 dcbe 0899 cabe e099 cf3e
000002c0: bfbc 843f efe4 f6be fb5a b2be 0c81 36bf
000002d0: 577d 17bf 7fab 14bf a02a e53e 1098 55bd
000002e0: 413f c7be 5af2 44be 949e cfbe 9a6b c53d
000002f0: 3843 bc3c f65f cfbe 57e7 4c3d 0c5e 9b3f
00000300: dfda 0ebf 55e5 d3be ab9f 813f a589 02bf
00000310: 68ce 3bbf 58f4 a23f d16e abbd 8f9f 633f
00000320: 2870 2b3d 1380 583f 261e f0be 87f8 23bf
00000330: e318 02bf 4ddc a73f 189c b3be 99d2 afbe
00000340: ae77 9240 fb61 b8be ed4b 413f 3b1c febe
00000350: 19d3 9abe 6921 19bf 446e 0ebf 8652 373d
00000360: 0518 a9be 5d19 61bf 4eb4 c5be 1bf0 4c3c
00000370: a8d8 8abe ded1 82be 14e5 563f 695a e0be
00000380: 1a87 48bf 716c 333e d6e3 a83f 2cfa 9ebe
00000390: f45c e1be 1fc7 2bbf 392b f6be 1895 f1be
000003a0: 6647 673f 7625 d0be a205 bcbd 3b64 9a3e
000003b0: 9d68 003f 39bb a33b 6164 1bbf 7b76 e03f
000003c0: ca12 b83f 3b09 e3be 87b6 04bf 7bb2 dabd
000003d0: 37ed 15bf c92c bcbe e423 90bf 8640 e4bd
000003e0: dc2d febe e65f 833f 747a 90be e398 dabd
000003f0: 94e5 c53d ec7f fdbe 04de bfbd ed86 923f

fc3.bias f4 [4]
-0.111386135 -0.018056354 -0.10325029 -0.019628374
00000000: 6a1e e4bd ebea 93bc e374 d3bd afcb a0bc
